…
2021-01-29 10:07:05,706   INFO  Database filter by difficulty Cyclist: 705 => 581
2021-01-29 10:07:05,714   INFO  Loading KITTI dataset
2021-01-29 10:07:05,876   INFO  Total samples for KITTI dataset: 3712
2021-01-29 10:07:11,131   INFO  DistributedDataParallel(
  (module): Point3DSSD(
    (vfe): None
    (backbone_3d): SSDBackbone(
      (SA_modules): ModuleList(
        (0): PointnetSAModuleMSG_SSD(
          (groupers): ModuleList(
            (0): QueryAndGroup()
            (1): QueryAndGroup()
            (2): QueryAndGroup()
          )
          (mlps): ModuleList(
            (0): Sequential(
              (0): Conv2d(4, 16, kernel_size=(1, 1), stride=(1, 1), bias=False)
              (1): BatchNorm2d(16, eps=1e-05, momentum=0.1, affine=True, track_running_stats=True)
              (2): ReLU()
              (3): Conv2d(16, 16, kernel_size=(1, 1), stride=(1, 1), bias=False)
              (4): BatchNorm2d(16, eps=1e-05, momentum=0.1, affine=True, track_running_stats=True)
              (5): ReLU()
              (6): Conv2d(16, 32, kernel_size=(1, 1), stride=(1, 1), bias=False)
              (7): BatchNorm2d(32, eps=1e-05, momentum=0.1, affine=True, track_running_stats=True)
              (8): ReLU()
            )
            (1): Sequential(
              (0): Conv2d(4, 16, kernel_size=(1, 1), stride=(1, 1), bias=False)
              (1): BatchNorm2d(16, eps=1e-05, momentum=0.1, affine=True, track_running_stats=True)
              (2): ReLU()
              (3): Conv2d(16, 16, kernel_size=(1, 1), stride=(1, 1), bias=False)
              (4): BatchNorm2d(16, eps=1e-05, momentum=0.1, affine=True, track_running_stats=True)
              (5): ReLU()
              (6): Conv2d(16, 32, kernel_size=(1, 1), stride=(1, 1), bias=False)
              (7): BatchNorm2d(32, eps=1e-05, momentum=0.1, affine=True, track_running_stats=True)
              (8): ReLU()
            )
            (2): Sequential(
              (0): Conv2d(4, 32, kernel_size=(1, 1), stride=(1, 1), bias=False)
              (1): BatchNorm2d(32, eps=1e-05, momentum=0.1, affine=True, track_running_stats=True)
              (2): ReLU()
              (3): Conv2d(32, 32, kernel_size=(1, 1), stride=(1, 1), bias=False)
              (4): BatchNorm2d(32, eps=1e-05, momentum=0.1, affine=True, track_running_stats=True)
              (5): ReLU()
              (6): Conv2d(32, 64, kernel_size=(1, 1), stride=(1, 1), bias=False)
              (7): BatchNorm2d(64, eps=1e-05, momentum=0.1, affine=True, track_running_stats=True)
              (8): ReLU()
            )
          )
          (out_aggregation): Sequential(
            (0): Conv1d(128, 64, kernel_size=(1,), stride=(1,), bias=False)
            (1): BatchNorm1d(64, eps=1e-05, momentum=0.1, affine=True, track_running_stats=True)
            (2): ReLU()
          )
        )
        (1): PointnetSAModuleMSG_SSD(
          (groupers): ModuleList(
            (0): QueryAndGroup()
            (1): QueryAndGroup()
            (2): QueryAndGroup()
          )
          (mlps): ModuleList(
            (0): Sequential(
              (0): Conv2d(67, 64, kernel_size=(1, 1), stride=(1, 1), bias=False)
              (1): BatchNorm2d(64, eps=1e-05, momentum=0.1, affine=True, track_running_stats=True)
              (2): ReLU()
              (3): Conv2d(64, 64, kernel_size=(1, 1), stride=(1, 1), bias=False)
              (4): BatchNorm2d(64, eps=1e-05, momentum=0.1, affine=True, track_running_stats=True)
              (5): ReLU()
              (6): Conv2d(64, 128, kernel_size=(1, 1), stride=(1, 1), bias=False)
              (7): BatchNorm2d(128, eps=1e-05, momentum=0.1, affine=True, track_running_stats=True)
              (8): ReLU()
            )
            (1): Sequential(
              (0): Conv2d(67, 64, kernel_size=(1, 1), stride=(1, 1), bias=False)
              (1): BatchNorm2d(64, eps=1e-05, momentum=0.1, affine=True, track_running_stats=True)
              (2): ReLU()
              (3): Conv2d(64, 64, kernel_size=(1, 1), stride=(1, 1), bias=False)
              (4): BatchNorm2d(64, eps=1e-05, momentum=0.1, affine=True, track_running_stats=True)
              (5): ReLU()
              (6): Conv2d(64, 128, kernel_size=(1, 1), stride=(1, 1), bias=False)
              (7): BatchNorm2d(128, eps=1e-05, momentum=0.1, affine=True, track_running_stats=True)
              (8): ReLU()
            )
            (2): Sequential(
              (0): Conv2d(67, 64, kernel_size=(1, 1), stride=(1, 1), bias=False)
              (1): BatchNorm2d(64, eps=1e-05, momentum=0.1, affine=True, track_running_stats=True)
              (2): ReLU()
              (3): Conv2d(64, 96, kernel_size=(1, 1), stride=(1, 1), bias=False)
              (4): BatchNorm2d(96, eps=1e-05, momentum=0.1, affine=True, track_running_stats=True)
              (5): ReLU()
              (6): Conv2d(96, 128, kernel_size=(1, 1), stride=(1, 1), bias=False)
              (7): BatchNorm2d(128, eps=1e-05, momentum=0.1, affine=True, track_running_stats=True)
              (8): ReLU()
            )
          )
          (out_aggregation): Sequential(
            (0): Conv1d(384, 128, kernel_size=(1,), stride=(1,), bias=False)
            (1): BatchNorm1d(128, eps=1e-05, momentum=0.1, affine=True, track_running_stats=True)
            (2): ReLU()
          )
        )
        (2): PointnetSAModuleMSG_SSD(
          (groupers): ModuleList(
            (0): QueryAndGroup()
            (1): QueryAndGroup()
            (2): QueryAndGroup()
          )
          (mlps): ModuleList(
            (0): Sequential(
              (0): Conv2d(131, 128, kernel_size=(1, 1), stride=(1, 1), bias=False)
              (1): BatchNorm2d(128, eps=1e-05, momentum=0.1, affine=True, track_running_stats=True)
              (2): ReLU()
              (3): Conv2d(128, 128, kernel_size=(1, 1), stride=(1, 1), bias=False)
              (4): BatchNorm2d(128, eps=1e-05, momentum=0.1, affine=True, track_running_stats=True)
              (5): ReLU()
              (6): Conv2d(128, 256, kernel_size=(1, 1), stride=(1, 1), bias=False)
              (7): BatchNorm2d(256, eps=1e-05, momentum=0.1, affine=True, track_running_stats=True)
              (8): ReLU()
            )
            (1): Sequential(
              (0): Conv2d(131, 128, kernel_size=(1, 1), stride=(1, 1), bias=False)
              (1): BatchNorm2d(128, eps=1e-05, momentum=0.1, affine=True, track_running_stats=True)
              (2): ReLU()
              (3): Conv2d(128, 192, kernel_size=(1, 1), stride=(1, 1), bias=False)
              (4): BatchNorm2d(192, eps=1e-05, momentum=0.1, affine=True, track_running_stats=True)
              (5): ReLU()
              (6): Conv2d(192, 256, kernel_size=(1, 1), stride=(1, 1), bias=False)
              (7): BatchNorm2d(256, eps=1e-05, momentum=0.1, affine=True, track_running_stats=True)
              (8): ReLU()
            )
            (2): Sequential(
              (0): Conv2d(131, 128, kernel_size=(1, 1), stride=(1, 1), bias=False)
              (1): BatchNorm2d(128, eps=1e-05, momentum=0.1, affine=True, track_running_stats=True)
              (2): ReLU()
              (3): Conv2d(128, 256, kernel_size=(1, 1), stride=(1, 1), bias=False)
              (4): BatchNorm2d(256, eps=1e-05, momentum=0.1, affine=True, track_running_stats=True)
              (5): ReLU()
              (6): Conv2d(256, 256, kernel_size=(1, 1), stride=(1, 1), bias=False)
              (7): BatchNorm2d(256, eps=1e-05, momentum=0.1, affine=True, track_running_stats=True)
              (8): ReLU()
            )
          )
          (out_aggregation): Sequential(
            (0): Conv1d(768, 256, kernel_size=(1,), stride=(1,), bias=False)
            (1): BatchNorm1d(256, eps=1e-05, momentum=0.1, affine=True, track_running_stats=True)
            (2): ReLU()
          )
        )
        (3): PointnetSAModuleMSG_SSD(
          (groupers): ModuleList()
          (mlps): ModuleList()
        )
        (4): Vote_layer(
          (mlp_modules): Sequential(
            (0): Conv1d(256, 128, kernel_size=(1,), stride=(1,), bias=False)
            (1): BatchNorm1d(128, eps=1e-05, momentum=0.1, affine=True, track_running_stats=True)
            (2): ReLU()
          )
          (ctr_reg): Conv1d(128, 3, kernel_size=(1,), stride=(1,))
        )
        (5): PointnetSAModuleMSG_SSD(
          (groupers): ModuleList(
            (0): QueryAndGroup()
            (1): QueryAndGroup()
          )
          (mlps): ModuleList(
            (0): Sequential(
              (0): Conv2d(259, 256, kernel_size=(1, 1), stride=(1, 1), bias=False)
              (1): BatchNorm2d(256, eps=1e-05, momentum=0.1, affine=True, track_running_stats=True)
              (2): ReLU()
              (3): Conv2d(256, 256, kernel_size=(1, 1), stride=(1, 1), bias=False)
              (4): BatchNorm2d(256, eps=1e-05, momentum=0.1, affine=True, track_running_stats=True)
              (5): ReLU()
              (6): Conv2d(256, 512, kernel_size=(1, 1), stride=(1, 1), bias=False)
              (7): BatchNorm2d(512, eps=1e-05, momentum=0.1, affine=True, track_running_stats=True)
              (8): ReLU()
            )
            (1): Sequential(
              (0): Conv2d(259, 256, kernel_size=(1, 1), stride=(1, 1), bias=False)
              (1): BatchNorm2d(256, eps=1e-05, momentum=0.1, affine=True, track_running_stats=True)
              (2): ReLU()
              (3): Conv2d(256, 512, kernel_size=(1, 1), stride=(1, 1), bias=False)
              (4): BatchNorm2d(512, eps=1e-05, momentum=0.1, affine=True, track_running_stats=True)
              (5): ReLU()
              (6): Conv2d(512, 1024, kernel_size=(1, 1), stride=(1, 1), bias=False)
              (7): BatchNorm2d(1024, eps=1e-05, momentum=0.1, affine=True, track_running_stats=True)
              (8): ReLU()
            )
          )
          (out_aggregation): Sequential(
            (0): Conv1d(1536, 512, kernel_size=(1,), stride=(1,), bias=False)
            (1): BatchNorm1d(512, eps=1e-05, momentum=0.1, affine=True, track_running_stats=True)
            (2): ReLU()
          )
        )
      )
    )
    (map_to_bev_module): None
    (pfe): None
    (backbone_2d): None
    (dense_head): None
    (point_head): PointHeadBox3DSSD(
      (cls_loss_func): SigmoidFocalClassificationLoss()
      (reg_loss_func): WeightedSmoothL1Loss()
      (cls_center_layers): Sequential(
        (0): Linear(in_features=512, out_features=256, bias=False)
        (1): BatchNorm1d(256, eps=1e-05, momentum=0.1, affine=True, track_running_stats=True)
        (2): ReLU()
        (3): Linear(in_features=256, out_features=256, bias=False)
        (4): BatchNorm1d(256, eps=1e-05, momentum=0.1, affine=True, track_running_stats=True)
        (5): ReLU()
        (6): Linear(in_features=256, out_features=3, bias=True)
      )
      (box_center_layers): Sequential(
        (0): Linear(in_features=512, out_features=256, bias=False)
        (1): BatchNorm1d(256, eps=1e-05, momentum=0.1, affine=True, track_running_stats=True)
        (2): ReLU()
        (3): Linear(in_features=256, out_features=256, bias=False)
        (4): BatchNorm1d(256, eps=1e-05, momentum=0.1, affine=True, track_running_stats=True)
        (5): ReLU()
        (6): Linear(in_features=256, out_features=30, bias=True)
      )
    )
    (roi_head): None
  )
)
2021-01-29 10:07:11,135   INFO  **********************Start training kitti_models/3DSSD_openPCDet(3DSSD)**********************
2021-01-29 15:49:34,954   INFO  **********************End training kitti_models/3DSSD_openPCDet(3DSSD)**********************



2021-01-29 15:49:34,955   INFO  **********************Start evaluation kitti_models/3DSSD_openPCDet(3DSSD)**********************
…
